app/src/main/assets/model.tflite (tflite, 366846 bytes, 5 tensors)

sequential_5/embedding_5/embedding_lookup/776488 f4 [4683, 16]
000000 79 37 d2 3e 75 05 00 3e 99 8d 98 3d 01 de fe 3c
       0.41057947 0.12502082 0.074488826 0.03111172
000010 ba d0 a2 be ff c9 88 bc 78 b0 cb 3d 8e 0b 84 bd
       -0.3179987 -0.016697882 0.09945768 -0.064475164
000020 58 a8 de 3d 8b af c5 bd 6e 62 d9 3c 38 91 d4 bc
       0.10871953 -0.09652623 0.026536193 -0.025948152
000030 d6 b2 89 bd fa d8 c1 be 28 2b 1a be 43 44 0c be
       -0.067235634 -0.37860852 -0.15055525 -0.13697915
000040 5d 80 c9 be 5c ce dd bd c3 ce 5e be 69 61 8a be
       -0.39355746 -0.108303756 -0.21758561 -0.27027443
000050 76 4f e1 bb 96 b7 d5 3c 45 83 83 be 9f 04 11 bf
       -0.0068759276 0.026088517 -0.25686088 -0.56647676
000060 d0 0b 5a be 0f 48 73 bf ae 7f c8 bd 9f c0 25 3f
       -0.21293569 -0.9503183 -0.09789978 0.6474704
000070 e8 dc 00 bf dd d4 7f bf d4 3b ff be 38 37 ef be
       -0.50337076 -0.9993418 -0.49850333 -0.46721816
000080 64 c6 65 3c e0 b4 2d bd a0 07 26 bb c9 f6 00 3d
       0.014024351 -0.042408824 -0.0025334135 0.031485353
000090 d2 ea ae 3c d3 33 ca bc 12 af d3 3c 91 1a 4c 3d
       0.021352205 -0.024682915 0.025840316 0.049830023
0000a0 8c c4 2b 3c e4 1d 5c 3c c7 b1 3c 3d 33 2e bb bc
       0.010483872 0.013434861 0.04606798 -0.022849178
0000b0 ae 8f a7 3c 16 30 21 bd 80 c3 e3 bb c7 cf f5 bc
       0.020454254 -0.0393525 -0.0069507957 -0.030006303
0000c0 c5 37 c6 be 08 45 9c 3e 65 62 25 bf bf ae 2e 3e
       -0.38714424 0.30521417 -0.64603263 0.17058848
0000d0 0c 6d 14 3e 52 1d e0 be 27 25 8c be 4d ea 12 3f
       0.14494723 -0.4377237 -0.27372095 0.57388765
0000e0 05 4f 23 3f f2 09 1b bf 6b 5a a7 be a6 b4 de 3e
       0.6379245 -0.6056205 -0.3268617 0.434972
0000f0 25 ca 40 be 14 22 06 c0 a0 76 dd 38 4a f9 b1 bf
       -0.18827112 -2.09583 0.00010560197 -1.3904202
000100 07 21 43 3d 47 67 d4 3e 49 45 be be 95 72 fb 3e
       0.04763892 0.41485044 -0.37162235 0.49110857
000110 8c 22 50 bf 01 d1 aa 3e e3 c7 a9 3e 00 ac d7 3e
       -0.81302714 0.33362582 0.33160314 0.42123413
000120 97 a4 51 bf ab f0 f8 be 3b 0c 4a be 34 5d 09 3f
       -0.8189177 -0.48621115 -0.19731228 0.5365784
000130 fc b3 c3 3e 8e 25 5a bf 63 1e a6 3e b8 41 12 3f
       0.38223255 -0.85213554 0.32445058 0.5713153
000140 bc 4b cb 3e 27 08 53 3e ec bd 66 3d 1c 12 2b be
       0.39706218 0.20608579 0.056333467 -0.16706127
000150 47 f7 03 bf 57 85 4b be 69 40 be 3e 6e a7 86 be
       -0.5154919 -0.19875084 0.37158516 -0.26299614
000160 33 0f be 3e 8a 47 8f bb 28 6f 9c 3e 31 a1 ae be
       0.3712097 -0.004372542 0.30553555 -0.34107354
000170 a0 03 23 bd 4e 92 8b be f5 20 a7 be 1b dc 4a be
       -0.03979838 -0.2726006 -0.32642332 -0.19810526
000180 f0 db e9 3e c1 b9 39 3f bc 66 26 3f de 09 7a be
       0.45675611 0.7254906 0.6500051 -0.24417827
000190 1f d4 5e bf 81 23 ec 3e 68 38 13 3d e5 51 06 bf
       -0.8704242 0.46120837 0.035942465 -0.5246871
0001a0 8c cc 8b 3e 1a f5 54 bf b2 43 4d be 32 18 1c bd
       0.27304494 -0.83186495 -0.20045355 -0.038109012
0001b0 cd 01 a1 bf 6d d4 28 bf bc 07 54 bf 28 f8 27 bf
       -1.2578675 -0.65949136 -0.828243 -0.6561303
0001c0 4f 77 91 bd f2 76 75 3e 62 0c 1c bf b6 c3 c4 be
       -0.071028344 0.23971155 -0.60956395 -0.38430566
0001d0 53 0d 58 bf 5a 11 3a be 91 5b 33 3f 81 50 2d bf
       -0.8439533 -0.18170682 0.70061594 -0.67700964
0001e0 c4 b5 25 3e e9 b8 45 bf 60 d1 09 3e b6 71 55 3f
       0.1618262 -0.77235276 0.13458776 0.83376634
0001f0 e5 83 66 bf 0f 07 85 bf 88 a7 df be d3 ea 70 bf
       -0.90045005 -1.0392779 -0.43682504 -0.94108313
000200 da 44 bd 3d 11 a3 69 3f 92 c0 b9 be 0e e6 82 be
       0.09241648 0.91264445 -0.36279732 -0.25566143
000210 07 db 89 3e bb 70 f2 bf 4c 55 63 bf a0 c9 fb bf
       0.26924917 -1.8940653 -0.8880203 -1.9670906
000220 5f f7 95 bf 6c 1a c4 3c 3f 26 43 bf 45 c9 59 3f
       -1.1716117 0.02393838 -0.76230234 0.8507274
000230 b5 d3 4d be 75 db 45 c0 67 62 00 bf 82 d4 7b bf
       -0.20100291 -3.0915196 -0.5015015 -0.98371136
000240 e3 d0 2c be c2 0e 9b be 5e ae 49 3e 99 8c bc bf
       -0.16876559 -0.30284697 0.19695422 -1.4730407
000250 82 41 ac bf dc 83 2f 3e 7d 8b 04 40 a8 f2 04 c0
       -1.3457491 0.17140144 2.0710137 -2.0773106
000260 cc b3 a1 bf b4 7d af bf 85 0c 2f 3f 6d f0 a9 3f
       -1.2632995 -1.3710237 0.6837848 1.3276497
000270 a3 d2 ad be 65 55 e1 bf 2c 6e e8 bf 71 d5 ba bf
       -0.33949766 -1.7604185 -1.8158622 -1.4596387
000280 31 53 af 3f be d4 5e 3f be 59 a0 3e fc 1e 38 3f
       1.3697263 0.8704337 0.31318468 0.7192228
000290 fd 88 5c bf 68 7b 3d bf cc c9 e6 3e 01 12 fd 3e
       -0.8614653 -0.7401643 0.45075834 0.49427798
0002a0 cd 6c 5a bf 5b c3 ad 3e af 67 c7 3e b6 49 11 bf
       -0.85322267 0.33938107 0.38946292 -0.567531
0002b0 49 3e 14 3f 05 ef 2c bf 06 2e 67 3f d3 ee e3 3d
       0.5790754 -0.67552215 0.903046 0.111295365
0002c0 b4 d9 22 3f 08 66 30 3e 3d 0a 07 bf 2f f8 88 3f
       0.6361344 0.17226422 -0.5275 1.070074
0002d0 bd 89 8d 3e ac 64 15 3f b9 26 f7 be 6b af 74 bf
       0.27644148 0.5835674 -0.4827173 -0.95580167
0002e0 2d 47 e3 be ca 82 da 3e 97 fd c9 3e 54 7e 4e 3f
       -0.4439024 0.4267791 0.39451286 0.8066151
0002f0 cb 1a 32 bf 7c 37 39 bf d8 94 94 3f f1 c4 f6 bd
       -0.6957213 -0.7235029 1.1607924 -0.12049282
000300 81 a2 6a 40 20 0c c0 3f fe e0 ce be 7a 6a f4 be
       3.6661685 1.50037 -0.4040603 -0.47737485
000310 86 a7 f1 bf 5a 9a 37 be fe 0a 3a 3f a4 db 18 40
       -1.8879249 -0.17929974 0.7267302 2.3884058
000320 f6 b8 63 3f d8 88 d5 be 70 8c b1 3f 54 09 04 c0
       0.88954103 -0.41705966 1.3870983 -2.0630693
000330 0a a6 37 be 9e 42 a4 3f ba 75 49 bf 5d d4 2f 3e
       -0.17934433 1.283283 -0.7869526 0.17170854
000340 9a f1 3a be 53 74 ac 3e d9 e7 50 3e 74 b6 52 be
       -0.18256226 0.33682498 0.20400943 -0.20577413
000350 58 eb 5b 3d 0f 9e 39 3f ca c2 88 3c 18 7a cd bb
       0.05369124 0.72506803 0.016694445 -0.006270658
000360 28 56 d5 bf 9c c2 ff bf 84 80 16 3e a6 86 2f 3e
       -1.6666918 -1.9981265 0.14697462 0.17141208
000370 81 fa 25 c0 4f 5b 66 bf 97 9d 36 bf b0 d3 89 bf
       -2.5934145 -0.89983076 -0.71334213 -1.0767727
000380 2a 9b 03 3f 12 cd a5 3c a8 60 40 3e 96 29 50 bf
       0.51408637 0.020239387 0.18786871 -0.81313455
000390 d4 c4 0c bf d3 5d 98 bd 9e 63 11 3f 77 04 49 3f
       -0.54987836 -0.074397705 0.5679263 0.7852244
0003a0 f0 fd af bf 00 16 ef bf b2 77 65 3f 75 7e 73 bd
       -1.374937 -1.8678589 0.89635766 -0.05944677
0003b0 2d aa ac bf 8c 6e a8 bf 3b 47 81 bf bd 1f 50 bf
       -1.3489434 -1.3158736 -1.0099863 -0.8129843
0003c0 6b af 8b 3d 77 df fb bd 6c 04 36 3e 4f e5 d3 3e
       0.06820568 -0.12298482 0.17775124 0.41385886
0003d0 8a 1b 15 be 6d 5f f3 be ef 31 81 3d 36 b4 62 3e
       -0.14561287 -0.47533742 0.06308352 0.22139058
0003e0 46 e0 6d bd da c9 7b bf fa 2a 82 be 63 7e 6f bd
       -0.058075212 -0.98354876 -0.25423414 -0.05847014
0003f0 d7 0c b8 bd ad b8 4c bf 5b 69 cf be 75 a3 3b bf
       -0.08986824 -0.7996929 -0.40510067 -0.7329629

sequential_5/dense_11/BiasAdd/ReadVariableOp/resource f4 [20]
000000 69 b3 51 c0 e7 8b 1d c0 f8 4f 64 c0 02 01 50 c0
       -3.2765753 -2.461664 -3.567381 -3.2500615
000010 6a d7 0c c0 37 b9 e2 bf cf f8 4a c0 4a 40 4d c0
       -2.2006478 -1.7712773 -3.171436 -3.207049
000020 71 64 46 c0 16 1d eb bf 9e 1f 6a c0 9f f8 7d c0
       -3.0998805 -1.8368251 -3.6581798 -3.9682996
000030 85 c2 5a c0 f1 c2 3f c0 29 55 67 c0 48 40 05 c0
       -3.4181225 -2.9962733 -3.6145728 -2.0820484
000040 8c 67 1c c0 34 fd 49 c0 12 f3 87 c0 6b 72 83 c0
       -2.44382 -3.1560793 -4.2484217 -4.107717

sequential_5/dense_10/BiasAdd/ReadVariableOp/resource f4 [16]
000000 6a d1 8e 3c d1 e5 e8 3e ef fd 1f be 40 62 05 3f
       0.01743384 0.45487836 -0.15624212 0.5210304
000010 58 f4 ad 3d 12 b5 a5 3e 56 86 c3 bd 48 a5 3f 3d
       0.084938705 0.32364708 -0.09547107 0.046788484
000020 6f 27 e9 3e 0f d8 af bc ef a3 01 3f 00 10 a2 3e
       0.45537898 -0.02146533 0.5064077 0.31652832
000030 c7 23 ec 3c 3a 73 ff 3e 54 8d 09 3e db 28 9f be
       0.028825654 0.49892598 0.13432819 -0.31085858

sequential_5/dense_10/MatMul f4 [16, 16]
000000 20 4b 51 3f e4 d8 92 bf 9e ee 0f be a4 b0 f7 3e
       0.81755257 -1.147244 -0.14055869 0.48376954
000010 2a ed 96 3e 15 5c 75 be 63 1f 4c be 75 55 c4 3e
       0.29477817 -0.23960908 -0.19933848 0.3834645
000020 19 29 b6 3f 23 00 ff 3f 26 2d a9 3d 83 13 61 3f
       1.4231292 1.9921917 0.082605645 0.879204
000030 67 8e fb be 86 5f 92 3e 67 2f 6e 3f ac 8d e4 bf
       -0.49132082 0.28588504 0.9304108 -1.7855735
000040 f7 90 c0 bf ff 0f 41 c0 df 9f 8e be d5 c5 71 40
       -1.504424 -3.0166013 -0.27856347 3.7776997
000050 df f2 8f 3f 7a 1e 2d 40 7b 2a 1b 3e 26 cf 15 bf
       1.1245993 2.7049851 0.15152924 -0.5851921
000060 34 52 1d 40 e6 31 bf bf f0 c7 8e 3f ee ce 3b 40
       2.4581423 -1.4937103 1.1154766 2.934505
000070 8d 22 0a 3e e5 77 9a be a6 92 88 be 76 55 01 c0
       0.13489743 -0.30169597 -0.26674384 -2.0208411
000080 2a 0e 88 3e e7 2d 02 bf 8e 23 bb 3f ea 9d 66 bf
       0.26573306 -0.5085129 1.4620225 -0.9008471
000090 87 ef 1c 3e da 0d 75 3f e8 25 08 bd 1d 7a d0 3f
       0.15325747 0.9572426 -0.033239275 1.6287266
0000a0 23 35 e7 3d 76 fe c3 bf 57 4b 0f 40 4d 3e 43 bf
       0.11289432 -1.531203 2.2389734 -0.7626694
0000b0 2b 1c 6e bf 52 86 a5 3f 24 67 cb bf 2b e8 bd bf
       -0.9301173 1.2931616 -1.5890851 -1.4836477
0000c0 39 b6 9d bf db 68 f9 3d 2c fb ff bf b0 d5 82 bf
       -1.2321235 0.12178203 -1.9998527 -1.0221462
0000d0 2a c9 60 bf 80 41 bb 3f 85 9c ae be 1d 3c 21 bf
       -0.8780695 1.4629364 -0.3410379 -0.6298235
0000e0 8c ed 92 c0 f9 9f 97 c0 ec 27 f1 3f 24 ca 4e 3f
       -4.5914974 -4.738278 1.8840308 0.8077719
0000f0 42 41 35 40 96 ec f3 be 06 ae b8 3e a8 23 5f 3f
       2.832108 -0.47641438 0.3607027 0.8716378
000100 dd 7b b9 3e 3b 09 f5 3f 38 bb 9d bf 5d f7 2d bf
       0.36227313 1.9143442 -1.232276 -0.6795557
000110 66 77 45 3f 9a 26 17 be 31 ac db be 3a f0 a4 bf
       0.7713531 -0.14760819 -0.4290481 -1.2885811
000120 7a 48 ef 3e cf 01 a7 bf 03 ef 92 3e 7e 36 1c 3f
       0.46734983 -1.3047427 0.28697976 0.6102065
000130 98 3f 4d 3f 1c dc a0 3f ca 55 0d c0 22 f5 7c 3f
       0.8017516 1.2567172 -2.2083611 0.98811543
000140 b7 a0 c7 bf 95 83 7a bf bd 3a d8 bf d5 62 2f 40
       -1.5595921 -0.9785703 -1.6892926 2.7404072
000150 b0 b6 64 3f 54 64 95 bf 02 6b 03 3e 26 f5 dc bf
       0.8934126 -1.1671243 0.12833789 -1.7262313
000160 6e 37 d2 3f 13 54 7a bf 08 14 be 3e 13 54 b3 3f
       1.6423166 -0.9778454 0.37124658 1.4010032
000170 49 fe 53 bf 8f e9 7f bf a6 8e 05 3f e6 c7 76 3e
       -0.82809883 -0.9996576 0.5217079 0.24099693
000180 88 39 e0 3f 6a 71 e9 3e a6 72 3c be 84 9e 9b bf
       1.7517557 0.4559434 -0.1840311 -1.215775
000190 56 37 9e 3f a2 86 74 bf 4f d3 03 be 34 48 be 3e
       1.2360637 -0.95517933 -0.12873577 0.37164462
0001a0 90 53 d4 3f b8 9a 0b bd dc b6 05 bf 33 ef 0f 3f
       1.6588001 -0.0340831 -0.52232146 0.56224364
0001b0 91 86 de 3e 14 36 19 3f 92 d1 74 bf 0d 18 cb 3f
       0.4346204 0.5984814 -0.9563228 1.5866715
0001c0 5a 11 07 40 5e 8c 4b bf 93 e8 0e bf d3 83 4d 3e
       2.110434 -0.7951106 -0.5582363 0.20069818
0001d0 dd 80 14 3f 2e 4a 88 be 49 a7 98 be 7c f6 bc 3f
       0.5800913 -0.26619095 -0.29815128 1.4762721
0001e0 12 5d 15 bf 44 e2 df be f7 84 01 be 30 a0 1f be
       -0.5834514 -0.43727314 -0.12648378 -0.1558845
0001f0 d1 c0 7b 3f 93 18 8c 3e 19 9e 9c 3f a7 5e 29 3f
       0.9834109 0.273625 1.2235748 0.66160053
000200 0b 44 b3 3e 64 6c d1 3f d6 49 09 c0 51 71 cd bf
       0.3501285 1.6361203 -2.1451316 -1.6050206
000210 5c 68 83 bf 23 cc 21 40 57 33 43 3f 15 a0 7a 3f
       -1.0266223 2.5280845 0.76250213 0.97900516
000220 76 8a 0e c0 3d 78 0b 40 b2 b5 b1 bf 09 88 74 40
       -2.227201 2.1792138 -1.3883574 3.820803
000230 fa b4 88 c0 e0 9b 80 3f 08 2a a5 be 73 fc c4 3f
       -4.272092 1.0047569 -0.3225863 1.5389541
000240 33 19 25 40 c4 38 de bf 84 ee bd ba 54 8e 8f 3f
       2.579663 -1.7361073 -0.0014490639 1.121531
000250 73 8b 72 3f c0 d4 46 3e a5 98 2f be 60 30 2a bf
       0.9474403 0.19417095 -0.17148073 -0.66480064
000260 b7 d6 1d bf 57 32 d4 bd 37 2e 38 3f 33 24 b6 be
       -0.61655754 -0.10361164 0.7194552 -0.35574493
000270 d0 bf 21 3f 9a 08 26 3f 22 c3 f3 3f 85 7b 13 bc
       0.6318331 0.64856875 1.9043925 -0.009001617
000280 0f 3a e4 be e7 bb 65 be d2 a8 12 c0 c5 f7 c1 bf
       -0.44575545 -0.2243496 -2.291554 -1.5153738
000290 be 80 4b c0 04 31 9e be dd 63 5e 3f 59 08 a5 3f
       -3.1797328 -0.3089677 0.8687113 1.2893173
0002a0 f8 2f fe bf 77 e8 ea 3f c7 ef 10 c0 86 c1 50 bf
       -1.9858389 1.8352193 -2.2646348 -0.81545293
0002b0 87 2a cd 3f 7c 8e 5c 3f 1e 4b ff 3e b3 43 3e 40
       1.6028603 0.86154914 0.49861997 2.972882
0002c0 7a 55 4f bf 09 f3 dc 3f ad db a7 be 68 85 25 3e
       -0.809898 1.7261668 -0.32784787 0.16164172
0002d0 53 4b 48 3e 11 bc 22 c0 ea ef 24 3e 92 3a 21 3f
       0.19559984 -2.5427287 0.16107145 0.62979996
0002e0 f8 56 f6 bf e6 00 b9 3f 37 cc a5 bf 2c 80 70 c0
       -1.9245291 1.4453399 -1.2952946 -3.757823
0002f0 6d 26 87 be 35 d2 a3 bf be 73 f7 3f 09 02 73 3f
       -0.26396504 -1.2798525 1.9332197 0.9492498
000300 e3 bc da 3d a5 50 49 c0 69 e6 3f 40 72 9a 67 bf
       0.106805585 -3.1455472 2.9984381 -0.9047004
000310 80 c4 31 c0 06 10 7c 3f 51 a1 40 3f c6 1b 42 bf
       -2.7776184 0.9846195 0.7524615 -0.7582363
000320 fe 47 40 3f 3e 7b f0 3f 46 cd 61 bf 77 48 87 3f
       0.7510985 1.878761 -0.8820385 1.056899
000330 0b 64 54 bf cf dd 12 40 4a fe e2 be 9e 88 28 3e
       -0.82965153 2.2947881 -0.44334632 0.16458365
000340 72 c7 66 bf b3 50 d4 3f d1 79 84 bf 8c 80 1c 40
       -0.9014808 1.6587127 -1.0349675 2.4453459
000350 2f 72 13 40 80 a8 8c 3f 78 4e 0d bf 44 64 c2 bf
       2.3038442 1.0988922 -0.5519786 -1.5186849
000360 66 8b 39 c0 68 ea a7 3f c5 ea a7 bf 69 94 c4 bf
       -2.8991332 1.311841 -1.3118521 -1.5357791
000370 3b 3d 34 3f 6e c4 3a c0 7f 62 9f 3f 49 b2 ec 3e
       0.7040593 -2.918239 1.2451934 0.4622977
000380 3e 33 b1 be 80 d7 b9 bf 54 c7 6e 3f d4 cb 34 bf
       -0.34609407 -1.451889 0.932729 -0.7062352
000390 7c 3f 1f c0 47 f7 32 3f b2 85 93 3e 46 e0 54 3e
       -2.4882498 0.69908565 0.2881294 0.20788679
0003a0 29 bd 1f 3e 1f 46 fc 3f 13 b4 04 c0 28 b3 f8 3d
       0.15599503 1.9708899 -2.0734909 0.12143546
0003b0 8b b7 09 40 4a 31 4f 3f f0 74 c5 bd e5 37 00 bf
       2.1518276 0.80934584 -0.09641445 -0.5008529
0003c0 f8 37 47 3f c4 46 a8 be 1c 07 a9 40 7b 98 48 bf
       0.77819777 -0.3286649 5.282118 -0.78357667
0003d0 ea 73 2c 40 c4 af 14 c0 ca a3 a6 be 2c 24 2c bf
       2.6945748 -2.323228 -0.32546836 -0.67242694
0003e0 21 16 1c bf 69 d9 50 3d a5 e6 21 3f fc 71 1f c0
       -0.60971266 0.05098859 0.6324256 -2.491332
0003f0 02 d7 9b 3f 85 21 be bf 97 a3 4d 3e b6 41 82 bd
       1.217499 -1.4853979 0.20081936 -0.063601896

sequential_5/dense_11/MatMul f4 [20, 16]
000000 21 04 5e c1 b7 0b 04 c2 f4 2c 33 c1 7a 60 45 c0
       -13.876008 -33.01144 -11.198475 -3.0840135
000010 d9 09 45 c0 6c 85 67 c1 45 4c a6 c0 ad b8 ec c0
       -3.078726 -14.470074 -5.1968102 -7.3975434
000020 cc 73 b9 c0 c6 8d 98 c1 d3 18 21 c1 9c 23 69 c0
       -5.7953854 -19.069225 -10.068561 -3.6427984
000030 cb 0e 96 c1 ea dd 8e c0 11 68 67 c1 50 5d b2 c0
       -18.757223 -4.464589 -14.462907 -5.5738907
000040 55 de 67 c0 57 ca 6e c0 78 d8 e1 c0 61 eb 2e c1
       -3.622945 -3.7310998 -7.0576744 -10.932466
000050 18 f2 34 c1 a6 3e b5 c0 6b 4c 61 c1 c4 79 ef c1
       -11.309105 -5.6638975 -14.081157 -29.934456
000060 ef a2 90 c0 10 12 b0 c1 a0 f7 15 c1 f7 2e 9d c1
       -4.5198894 -22.00882 -9.372955 -19.647932
000070 bf 77 ce bf ce 75 8b c1 a4 3c 66 c0 48 4d c9 c1
       -1.6130294 -17.432522 -3.5974512 -25.162735
000080 bc 76 19 c1 57 16 c7 c1 68 c9 66 c1 ab ef 8d c0
       -9.591488 -24.885908 -14.424171 -4.4355063
000090 d5 45 91 c1 a9 9f 5b c1 65 ca 72 c1 ba 1e c7 bf
       -18.159098 -13.72648 -15.174413 -1.5556252
0000a0 b8 84 42 c0 9e 40 83 c0 f9 ee af bf d0 79 23 c0
       -3.0393505 -4.101638 -1.3744804 -2.5543098
0000b0 84 9a 12 c1 4f 02 64 c0 04 4a 44 c0 99 95 94 c1
       -9.162724 -3.562641 -3.0670176 -18.573046
0000c0 0b da bb bd e0 46 4c c0 99 9f b9 c1 d0 f2 22 c1
       -0.09172448 -3.1918259 -23.202929 -10.18428
0000d0 63 3b 83 c1 37 8d 10 c0 ae d4 97 c1 90 43 8e c1
       -16.403997 -2.258619 -18.978848 -17.78299
0000e0 b5 e2 a7 c1 7b a1 5b c1 6d e3 a6 c1 6b b4 3f c0
       -20.985697 -13.726924 -20.861048 -2.9953868
0000f0 c4 40 95 c1 ea cf 1e c0 ce bb 80 c0 69 08 16 c0
       -18.656624 -2.48144 -4.0229254 -2.3442633
000100 41 d0 35 c1 44 fc 60 c1 52 27 a5 c1 e4 df 93 c0
       -11.363343 -14.061588 -20.6442 -4.6210804
000110 be 37 73 c1 b2 51 a1 c0 63 22 ab c1 da 62 85 c1
       -15.201109 -5.0412226 -21.39179 -16.673267
000120 ce 65 40 c1 54 d7 95 c1 c5 58 9a c1 5f 6e 25 c0
       -12.024855 -18.73014 -19.293344 -2.5848615
000130 89 51 ab c1 52 d6 4f c0 89 f4 16 c1 41 0a 0c c0
       -21.414812 -3.247456 -9.434701 -2.1881258
000140 06 25 d2 c0 32 cf 49 c1 a2 b1 90 c0 5a 00 80 c0
       -6.5670195 -12.613085 -4.5216837 -4.000043
000150 22 3c 51 c1 f9 dd 7e c1 8e 72 40 c1 01 7a ea c0
       -13.077181 -15.929193 -12.027967 -7.327393
000160 d5 89 c4 c0 cb f7 11 c1 d8 9e 41 c0 0b 34 62 c1
       -6.141825 -9.122996 -3.02532 -14.137706
000170 2b 9f 20 c0 48 3c 89 c1 9d 02 03 c0 aa 40 81 c1
       -2.5097148 -17.154434 -2.0470345 -16.156574
000180 74 7d a7 c0 cf ff 3e c1 25 a1 26 c0 a6 bb 33 c0
       -5.234064 -11.937453 -2.6035855 -2.8083282
000190 87 37 44 c0 ef f5 5f c1 4f 77 92 c0 7b db 3a bf
       -3.0658891 -13.997542 -4.577064 -0.7299115
0001a0 63 1f 1e c1 c7 8c 24 3f 95 bb 31 c1 42 80 af c1
       -9.882663 0.6427731 -11.108296 -21.937626
0001b0 3f 82 33 c1 f7 f6 cd c1 b5 ae 5a c1 24 fb b7 c1
       -11.219298 -25.745588 -13.667653 -22.997627
0001c0 1a c9 a0 bd 7a da 16 c0 0b dc 55 c0 fd 4f 35 c1
       -0.07850857 -2.3570848 -3.3415554 -11.332028
0001d0 df cb cb bf db f4 4c c0 e5 1d b5 bf d7 f8 af c1
       -1.5921592 -3.2024448 -1.4149748 -21.996504
0001e0 dd aa 15 c1 a0 f0 83 c1 b5 3b 0b c2 97 7c a7 c1
       -9.354215 -16.492493 -34.808308 -20.935835
0001f0 2b 73 9c c1 b3 22 f8 c0 f0 5f e5 c1 2d f7 93 c0
       -19.556234 -7.7542357 -28.671844 -4.623923
000200 ae 18 0b c0 c1 70 25 c0 83 27 05 c1 32 d7 02 c1
       -2.1733813 -2.585007 -8.322146 -8.177538
000210 ea 9c 84 c1 03 20 8e c0 4a bd 6d c1 7d 10 d8 c1
       -16.576618 -4.4414077 -14.858713 -27.00805
000220 a7 6b 28 c0 ed 4c a4 c1 2e 3a 3a c1 f8 54 a6 c1
       -2.6315706 -20.537561 -11.639204 -20.791489
000230 15 dd c7 bf 47 60 9c c1 66 ad 94 c0 ce 89 0a c2
       -1.5614344 -19.54701 -4.646167 -34.634575
000240 d0 7c 05 3f 2d 9d 9b c1 07 77 72 c0 a7 ac 1f c1
       0.52143574 -19.451746 -3.7885149 -9.979651
000250 7a 9c 6a c1 0f 59 a3 c1 62 66 4e c0 26 fe c9 bf
       -14.663202 -20.418486 -3.224999 -1.5780685
000260 73 0d ee c0 db 9d f2 bf 0c 41 6a c0 dd 98 f5 c0
       -7.4391418 -1.8954424 -3.6602201 -7.67491
000270 41 96 91 c0 cd 55 89 c1 2e a9 6d c0 e4 eb 97 c1
       -4.5495915 -17.166895 -3.713451 -18.990181
000280 23 37 72 c1 35 74 f4 c0 0f 4c 9e c1 36 5c e9 bf
       -15.138461 -7.6391854 -19.787138 -1.8231266
000290 da 54 6f c0 5a 07 84 c0 e5 82 63 c1 b7 4b 9b c1
       -3.739554 -4.1258974 -14.219457 -19.41197
0002a0 9b 75 9d bf 4a b4 f8 c1 32 0f 06 c1 e8 d8 bb c0
       -1.2301515 -31.088032 -8.37871 -5.870228
0002b0 b4 22 b6 c1 7c f4 4c c0 f4 19 84 c1 f2 e6 84 c1
       -22.766945 -3.2024221 -16.512672 -16.612766
0002c0 4b 21 42 c0 45 9c 58 bf cc 93 19 c1 a4 57 62 c0
       -3.033282 -0.8461345 -9.598583 -3.5365992
0002d0 4f b0 d2 c0 89 a9 f0 bf 5c 1e f0 c0 ba 23 bf c1
       -6.584022 -1.8801738 -7.503706 -23.892445
0002e0 dd 5c b9 c1 f4 79 96 c1 be ba ae c1 91 76 34 c1
       -23.170343 -18.809547 -21.841183 -11.278947
0002f0 ec e8 cf c0 2b 3b 6a c0 bf 1e 03 c0 c1 54 cb c0
       -6.497183 -3.6598613 -2.0487516 -6.354096
000300 12 27 44 c1 cd 30 c1 bf 25 f8 ba c1 32 31 76 bf
       -12.259539 -1.5093018 -23.371164 -0.96168816
000310 bf b1 d7 c1 d2 a9 f9 bf 9d 22 01 c2 59 55 ab c1
       -26.96179 -1.950495 -32.283802 -21.416674
000320 28 7c d7 c1 8e d5 6c c1 91 a4 f5 c1 6b 33 02 c1
       -26.935623 -14.802137 -30.705355 -8.137553
000330 dd c1 b4 c1 65 ce 2b c0 b6 d4 44 c1 97 09 80 c0
       -22.59466 -2.6844723 -12.301931 -4.0011706
000340 44 2b 27 bf 41 af c8 c1 8a 94 a5 c0 ec 36 43 c1
       -0.65300393 -25.085573 -5.174382 -12.200909
000350 57 c0 b2 c0 2b e0 88 c1 3d 9e 7f c0 da 6e 8e c0
       -5.585979 -17.109457 -3.994033 -4.4510317
000360 2d da 23 c0 c6 f7 2e c0 1b 56 4b c1 f5 b6 4a c0
       -2.5601914 -2.733873 -12.708522 -3.1674168
000370 de de 80 c1 9f 09 76 c0 95 d3 55 c1 82 9c 85 c0
       -16.108822 -3.8443372 -13.364156 -4.175355
000380 a2 fb 24 c1 a9 b9 29 c1 0b f1 94 bf 74 1d 96 c0
       -10.311434 -10.607827 -1.163606 -4.6910954
000390 e8 d7 f7 bd 6b bb 46 c1 9f 12 af 3d 66 66 53 c1
       -0.12101728 -12.420756 0.085484736 -13.2125
0003a0 17 1a 3b c0 45 4d b4 c1 55 84 bf c1 3f e3 d9 c1
       -2.9234674 -22.53773 -23.939615 -27.23596
0003b0 80 b5 ab c1 67 4a 9b c1 65 d1 ca c1 4a 16 25 c1
       -21.463623 -19.41133 -25.352243 -10.317942
0003c0 3d 88 ec c0 02 20 a1 c0 60 e4 5c c0 67 0a 4b c0
       -7.3916306 -5.035157 -3.451439 -3.17251
0003d0 13 8f 3d c1 dc 54 25 c1 d4 b3 97 c1 14 10 a7 c1
       -11.84743 -10.333218 -18.962807 -20.88285
0003e0 8a 1b f7 c0 da 1b a9 c1 92 14 92 c1 eb bb a7 c1
       -7.7221117 -21.1386 -18.260044 -20.966757
0003f0 a8 c2 b0 c0 a7 f9 87 c1 9e 28 00 c1 fa 56 bb c1
       -5.5237617 -16.9969 -8.009916 -23.417469
